ML/lightning/8-2-hyperparameter-from-CLI-intermediate/lightning_logs/version_0/checkpoints/epoch=431-step=27648.ckpt (torch, 8779 bytes, 6 tensors)

l1.weight f4 [10, 32]
0	0x3d105c01	0.03524399
1	0x3de953d1	0.1139294
2	0xbde7529a	-0.11295052
3	0xbdabf900	-0.08397102
4	0xbda44816	-0.08021562
5	0x3d94bd2a	0.07262643
6	0xbccb81f2	-0.024842236
7	0xbd7129c1	-0.05887771
8	0x3c7420ef	0.01490043
9	0x3d113a31	0.035455886
10	0xbdcad16a	-0.09903224
11	0x3e1239fe	0.14279935
12	0x3cbf63ff	0.023363112
13	0x3d9198a1	0.0710919
14	0xbdc5fe5d	-0.096676566
15	0x3d89de89	0.06731898
16	0x3e181d1b	0.14854853
17	0x3e03a086	0.12854204
18	0xbc95751f	-0.018244324
19	0xbd972094	-0.07379261
20	0xbe00071f	-0.12502716
21	0xbd2ad77f	-0.04170942
22	0xbdc5407c	-0.0963144
23	0x3d87f574	0.06638613
24	0x3de774a0	0.11301541
25	0x3d5ca2a0	0.05386603
26	0xbde2a4a9	-0.11066563
27	0xbd66b9ed	-0.056329656
28	0xbcb92f25	-0.022605488
29	0x3918bf33	0.00014567077
30	0x3d87dbd0	0.06633723
31	0x3dab36b0	0.0836004
32	0x3df3af74	0.118986994
33	0xbe20aae0	-0.15690184
34	0xbd2b7fcd	-0.041869927
35	0xbe07cd6f	-0.1326196
36	0xbe2ee916	-0.17081103
37	0x3ca4b2ed	0.02010485
38	0x3b83e1d1	0.004024722
39	0xbdeee27a	-0.11664291
40	0x3dadf6e7	0.084943585
41	0x3dcb9f71	0.099425204
42	0xbc1bedea	-0.009517172
43	0x3e452d48	0.19255555
44	0x3b2403ae	0.0025026607
45	0x3d758616	0.059942327
46	0xbd2515d0	-0.040304005
47	0x3e06f01c	0.13177532
48	0xbe2f67ab	-0.1712939
49	0x3ad9d418	0.0016618995
50	0xbd1b28fc	-0.037880883
51	0xbc70084a	-0.014650414
52	0xbdd2c7f7	-0.102920465
53	0x3dabea58	0.08394307
54	0x3bd78246	0.006576809
55	0x3d7ed4f6	0.062214814
56	0xbd941704	-0.072309524
57	0xbd08a502	-0.03336049
58	0xbd212f72	-0.039351888
59	0x3d85cb78	0.06532949
60	0xbdca3e29	-0.09875137
61	0x3d7b77be	0.061393492
62	0xbc2eda06	-0.010672098
63	0x3d97616a	0.07391627
64	0xbd80a0a5	-0.062806405
65	0xbc4be8ab	-0.012445609
66	0xbda6eaf5	-0.08150283
67	0x3d8e29ec	0.0694159
68	0xbd5cd076	-0.05390974
69	0x3d5da428	0.05411163
70	0xbd161c7a	-0.03664825
71	0x3ab646ca	0.0013906595
72	0x3d64a1b6	0.055818282
73	0x3c176544	0.009240452
74	0x3d8973a8	0.06711513
75	0x3ceba23a	0.02876388
76	0xbd7bdfe2	-0.06149281
77	0xbd63e6c1	-0.055639986
78	0xbdb531ae	-0.08847366
79	0x3d0407ef	0.03223413
80	0x3e084f14	0.13311416
81	0x3d791630	0.060812175
82	0xbd0da3fb	-0.034580212
83	0xbda1aabf	-0.07893895
84	0x3d2e8edc	0.04261671
85	0x3da49da7	0.08037882
86	0x3d133cb7	0.035946574
87	0xbce5dcd1	-0.028059395
88	0x3dbbbef0	0.09167278
89	0x3d826c9f	0.06368374
90	0xbdbebfa2	-0.09313895
91	0xbcb7ee23	-0.02245242
92	0x3cf1300d	0.029441858
93	0x3d16fa4e	0.036859803
94	0x3d8ff72c	0.07029566
95	0xbe2a3219	-0.16620673
96	0xbc108ba0	-0.008822352
97	0xbd0a5e6b	-0.03378145
98	0xbd8b0198	-0.06787413
99	0xbd8a1a3a	-0.067432836
100	0xbc9f6805	-0.01945878
101	0x3d21d035	0.039505202
102	0xbda618dc	-0.0811021
103	0xbe1d7db4	-0.15379983
104	0xbda37f24	-0.079832345
105	0x3d6023c1	0.054721598
106	0x3d230b90	0.03980595
107	0x3d6b7b17	0.057490434
108	0x3d3bf7df	0.045890685
109	0x3e488f93	0.19586019
110	0xbc591a59	-0.013250911
111	0x3dc5f597	0.09665983
112	0x3c8073c8	0.015680209
113	0x3d49e5b7	0.04929134
114	0xbc03ec35	-0.008051922
115	0xbdf2e36f	-0.11859786
116	0xbc7fa28c	-0.015602719
117	0xbdb5d7ab	-0.08879026
118	0xbd0d889b	-0.034554105
119	0xbd142a6a	-0.03617326
120	0x3d91b15b	0.07113906
121	0xbd9ca998	-0.07649535
122	0xbdfb13a4	-0.122596055
123	0x3cc474e2	0.023981515
124	0xbd8de257	-0.069279365
125	0x3b996047	0.0046806666
126	0x3dc002d2	0.09375538
127	0xbe44a748	-0.19204438
128	0xbc94408f	-0.01809719
129	0x3d93f98a	0.0722533
130	0xbe476fbf	-0.19476222
131	0xbc225204	-0.009907249
132	0xbe34bfc9	-0.17651285
133	0xbc8eecda	-0.017446924
134	0x3bf2513d	0.0073949383
135	0xbe9e6c18	-0.30941844
136	0x3ca80c94	0.02051381
137	0x3c59dc35	0.01329713
138	0xbd86032e	-0.06543575
139	0x3d9d9fda	0.07696505
140	0xbe3e6ce6	-0.18596229
141	0x3db80942	0.08986141
142	0x3e4a1371	0.19733979
143	0x3e80611c	0.2507409
144	0x3da42dd0	0.080165505
145	0x3dcc4146	0.099733874
146	0xbdc925c9	-0.0982166
147	0x3dd8de49	0.105892725
148	0xbe1239dc	-0.14279884
149	0xbdcbb0cb	-0.0994583
150	0x3d3840b4	0.04498358
151	0xbd41dbe9	-0.047328863
152	0x3c4c38a2	0.012464674
153	0x3e009200	0.12555695
154	0xbc1cecd5	-0.0095779495
155	0xbe273eef	-0.16332601
156	0x3bb0ecb4	0.005399311
157	0xbd99dc4e	-0.07512723
158	0xbe328d85	-0.17436798
159	0x3da337dd	0.079696395
160	0xbdaff129	-0.085909195
161	0xbb1ad3f6	-0.0023624874
162	0xbda87e84	-0.08227256
163	0xbbda00d1	-0.0066529294
164	0xbce4f627	-0.027949406
165	0x3d79e5be	0.061010115
166	0xbc81c55b	-0.015841177
167	0xbd7a1fd8	-0.061065525
168	0x3e06af44	0.13152796
169	0x3d7caeb6	0.061690055
170	0xbcf4d85c	-0.029888324
171	0x3c2fb072	0.01072322
172	0x3da6b3fb	0.08139797
173	0x3d76638b	0.060153525
174	0x3d617a09	0.055048022
175	0x3dc179c4	0.09447053
176	0x3d2f35bb	0.04277585
177	0x3d287ae0	0.041132808
178	0x3db6d3a6	0.089270875
179	0xbc1471f3	-0.009060371
180	0xbd1d5091	-0.038406912
181	0xb8273217	-3.9862553e-05
182	0xbcf4feeb	-0.02990671
183	0x3dbc613b	0.09198233
184	0x3c7ddbd1	0.015494303
185	0x3ca939eb	0.0206575
186	0x3ddc3fdb	0.10754367
187	0x3d4540ab	0.048157375
188	0x3d03c8f1	0.032174055
189	0xbc65e30f	-0.014031186
190	0x3db0ec43	0.08638813
191	0x3db399a9	0.08769543
192	0xbb65bb0f	-0.0035054123
193	0xbc3b8e2d	-0.011447472
194	0x3d98429e	0.07434581
195	0xbe3777a4	-0.17916733
196	0xbdcf20ea	-0.101137
197	0x3c745a1f	0.014914065
198	0xbd5fc918	-0.054635137
199	0xbdb059e3	-0.086108945
200	0xbd64c9d5	-0.055856545
201	0x3cb41b5f	0.021985708
202	0xbc8c98cb	-0.017162701
203	0x3cd68d31	0.026190372
204	0x3df11ba6	0.11772852
205	0x3d89c89d	0.06727717
206	0x3bf92cee	0.007604233
207	0xbc97ab64	-0.018514343
208	0xbd1ce77b	-0.038306694
209	0x3e3c3217	0.18378483
210	0xbda56336	-0.080755636
211	0xbcf541a2	-0.029938523
212	0x3e41a164	0.18909222
213	0xbe050bee	-0.12992832
214	0xbda2126b	-0.07913669
215	0x3d3ab463	0.045582186
216	0xbd9ef183	-0.077609085
217	0x3d175c52	0.036953278
218	0x3dfd2540	0.123606205
219	0xbdea7b5a	-0.11449309
220	0x3cb7da17	0.02244286
221	0x3e03a139	0.1285447
222	0xbdac2e74	-0.08407298
223	0xbd31e2e8	-0.043429285
224	0xbd655c04	-0.055995956
225	0xbe880e28	-0.265733
226	0xbe2d7b09	-0.16941465
227	0xbdb08682	-0.08619405
228	0x3da2816f	0.07934844
229	0x3c859634	0.016306974
230	0xbc5c0a31	-0.013430164
231	0x3c3d76dc	0.011563983
232	0x3dc5273c	0.09626624
233	0xbcb4e0bf	-0.022079824
234	0x3e1a7646	0.1508418
235	0x3dc070fe	0.093965515
236	0x3d592555	0.05301412
237	0x3d8834ba	0.06650682
238	0x3b31e908	0.0027146954
239	0x3ce72674	0.028216578
240	0xbd4b8581	-0.049687866
241	0x3cf0d181	0.029396774
242	0x3e746f33	0.23870544
243	0xbd527ec2	-0.051390417
244	0x3b7ae6d9	0.0038284569
245	0x3de4b9d9	0.1116826
246	0xbdc0cfa0	-0.09414601
247	0x3cae8cff	0.021307467
248	0x3e20bd0d	0.15697117
249	0x3e02678d	0.12734814
250	0xbdb3c1d3	-0.087772034
251	0xbdb7ad58	-0.089686096
252	0xbde40f23	-0.111356996
253	0x3e08a886	0.13345537
254	0x3d8224c8	0.06354672
255	0x3e01322b	0.12616794

l1.bias f4 [10]
0	0xbf584fc4	-0.8449671
1	0xbf2998bc	-0.6624868
2	0xbf5e54a3	-0.86847895
3	0xbf7394c4	-0.95148873
4	0xbf867d09	-1.0506908
5	0xbf3baf86	-0.733147
6	0xbf6d416d	-0.92677957
7	0xbf5d0984	-0.86342645
8	0xbf2f2713	-0.68419
9	0xbf51ca8c	-0.81949687

exp_avg f4 [10, 32]
0	0x80000004	-6e-45
1	0x80000004	-6e-45
2	0x00000004	6e-45
3	0x80000004	-6e-45
4	0x80000004	-6e-45
5	0x80000004	-6e-45
6	0x80000004	-6e-45
7	0x80000004	-6e-45
8	0x80000004	-6e-45
9	0x80000004	-6e-45
10	0x00000004	6e-45
11	0x00000004	6e-45
12	0x00000004	6e-45
13	0x00000004	6e-45
14	0x00000004	6e-45
15	0x80000004	-6e-45
16	0x80000004	-6e-45
17	0x80000004	-6e-45
18	0x80000004	-6e-45
19	0x00000004	6e-45
20	0x00000004	6e-45
21	0x00000004	6e-45
22	0x00000004	6e-45
23	0x00000004	6e-45
24	0x00000004	6e-45
25	0x80000004	-6e-45
26	0x00000004	6e-45
27	0x80000004	-6e-45
28	0x00000004	6e-45
29	0x00000004	6e-45
30	0x00000004	6e-45
31	0x80000004	-6e-45
32	0x00000004	6e-45
33	0x80000004	-6e-45
34	0x00000004	6e-45
35	0x80000004	-6e-45
36	0x00000004	6e-45
37	0x00000004	6e-45
38	0x80000004	-6e-45
39	0x00000004	6e-45
40	0x00000004	6e-45
41	0x80000004	-6e-45
42	0x00000004	6e-45
43	0x00000004	6e-45
44	0x80000004	-6e-45
45	0x80000004	-6e-45
46	0x00000004	6e-45
47	0x80000004	-6e-45
48	0x80000004	-6e-45
49	0x00000004	6e-45
50	0x80000004	-6e-45
51	0x80000004	-6e-45
52	0x80000004	-6e-45
53	0x80000004	-6e-45
54	0x80000004	-6e-45
55	0x00000004	6e-45
56	0x80000004	-6e-45
57	0x00000004	6e-45
58	0x00000004	6e-45
59	0x80000004	-6e-45
60	0x80000004	-6e-45
61	0x00000004	6e-45
62	0x80000004	-6e-45
63	0x00000004	6e-45
64	0x80000004	-6e-45
65	0x00000004	6e-45
66	0x80000004	-6e-45
67	0x80000004	-6e-45
68	0x00000004	6e-45
69	0x80000004	-6e-45
70	0x80000004	-6e-45
71	0x80000004	-6e-45
72	0x80000004	-6e-45
73	0x80000004	-6e-45
74	0x00000004	6e-45
75	0x80000004	-6e-45
76	0x00000004	6e-45
77	0x00000004	6e-45
78	0x00000004	6e-45
79	0x80000004	-6e-45
80	0x80000004	-6e-45
81	0x00000004	6e-45
82	0x00000004	6e-45
83	0x00000004	6e-45
84	0x80000004	-6e-45
85	0x80000004	-6e-45
86	0x80000004	-6e-45
87	0x80000004	-6e-45
88	0x00000004	6e-45
89	0x00000004	6e-45
90	0x80000004	-6e-45
91	0x00000004	6e-45
92	0x80000004	-6e-45
93	0x80000004	-6e-45
94	0x80000004	-6e-45
95	0x80000004	-6e-45
96	0x80000004	-6e-45
97	0x00000004	6e-45
98	0x00000004	6e-45
99	0x80000004	-6e-45
100	0x80000004	-6e-45
101	0x00000004	6e-45
102	0x00000004	6e-45
103	0x00000004	6e-45
104	0x80000004	-6e-45
105	0x00000004	6e-45
106	0x00000004	6e-45
107	0x00000004	6e-45
108	0x80000004	-6e-45
109	0x80000004	-6e-45
110	0x80000004	-6e-45
111	0x80000004	-6e-45
112	0x00000004	6e-45
113	0x80000004	-6e-45
114	0x80000004	-6e-45
115	0x00000004	6e-45
116	0x80000004	-6e-45
117	0x00000004	6e-45
118	0x00000004	6e-45
119	0x80000004	-6e-45
120	0x80000004	-6e-45
121	0x80000004	-6e-45
122	0x00000004	6e-45
123	0x80000004	-6e-45
124	0x00000004	6e-45
125	0x80000004	-6e-45
126	0x00000004	6e-45
127	0x80000004	-6e-45
128	0x00000004	6e-45
129	0x00000004	6e-45
130	0x00000004	6e-45
131	0x00000004	6e-45
132	0x80000004	-6e-45
133	0x00000004	6e-45
134	0x80000004	-6e-45
135	0x80000004	-6e-45
136	0x00000004	6e-45
137	0x00000004	6e-45
138	0x80000004	-6e-45
139	0x00000004	6e-45
140	0x00000004	6e-45
141	0x80000004	-6e-45
142	0x80000004	-6e-45
143	0x00000004	6e-45
144	0x80000004	-6e-45
145	0x80000004	-6e-45
146	0x00000004	6e-45
147	0x80000004	-6e-45
148	0x00000004	6e-45
149	0x00000004	6e-45
150	0x00000004	6e-45
151	0x00000004	6e-45
152	0x80000004	-6e-45
153	0x00000004	6e-45
154	0x80000004	-6e-45
155	0x00000004	6e-45
156	0x00000004	6e-45
157	0x80000004	-6e-45
158	0x80000004	-6e-45
159	0x80000004	-6e-45
160	0x80000004	-6e-45
161	0x00000004	6e-45
162	0x80000004	-6e-45
163	0x00000004	6e-45
164	0x80000004	-6e-45
165	0x80000004	-6e-45
166	0x00000004	6e-45
167	0x00000004	6e-45
168	0x80000004	-6e-45
169	0x80000004	-6e-45
170	0x80000004	-6e-45
171	0x00000004	6e-45
172	0x00000004	6e-45
173	0x80000004	-6e-45
174	0x80000004	-6e-45
175	0x00000004	6e-45
176	0x00000004	6e-45
177	0x80000004	-6e-45
178	0x80000004	-6e-45
179	0x80000004	-6e-45
180	0x80000004	-6e-45
181	0x80000004	-6e-45
182	0x00000004	6e-45
183	0x80000004	-6e-45
184	0x80000004	-6e-45
185	0x80000004	-6e-45
186	0x00000004	6e-45
187	0x00000004	6e-45
188	0x80000004	-6e-45
189	0x00000004	6e-45
190	0x80000004	-6e-45
191	0x80000004	-6e-45
192	0x80000004	-6e-45
193	0x80000004	-6e-45
194	0x80000004	-6e-45
195	0x00000004	6e-45
196	0x80000004	-6e-45
197	0x80000004	-6e-45
198	0x00000004	6e-45
199	0x80000004	-6e-45
200	0x80000004	-6e-45
201	0x00000004	6e-45
202	0x00000004	6e-45
203	0x00000004	6e-45
204	0x80000004	-6e-45
205	0x00000004	6e-45
206	0x00000004	6e-45
207	0x00000004	6e-45
208	0x00000004	6e-45
209	0x00000004	6e-45
210	0x00000004	6e-45
211	0x80000004	-6e-45
212	0x80000004	-6e-45
213	0x00000004	6e-45
214	0x00000004	6e-45
215	0x00000004	6e-45
216	0x80000004	-6e-45
217	0x00000004	6e-45
218	0x80000004	-6e-45
219	0x00000004	6e-45
220	0x80000004	-6e-45
221	0x00000004	6e-45
222	0x80000004	-6e-45
223	0x80000004	-6e-45
224	0x80000004	-6e-45
225	0x00000004	6e-45
226	0x80000004	-6e-45
227	0x00000004	6e-45
228	0x80000004	-6e-45
229	0x80000004	-6e-45
230	0x00000004	6e-45
231	0x00000004	6e-45
232	0x80000004	-6e-45
233	0x80000004	-6e-45
234	0x80000004	-6e-45
235	0x00000004	6e-45
236	0x00000004	6e-45
237	0x80000004	-6e-45
238	0x80000004	-6e-45
239	0x00000004	6e-45
240	0x80000004	-6e-45
241	0x80000004	-6e-45
242	0x80000004	-6e-45
243	0x80000004	-6e-45
244	0x80000004	-6e-45
245	0x80000004	-6e-45
246	0x00000004	6e-45
247	0x80000004	-6e-45
248	0x80000004	-6e-45
249	0x80000004	-6e-45
250	0x00000004	6e-45
251	0x00000004	6e-45
252	0x80000004	-6e-45
253	0x00000004	6e-45
254	0x80000004	-6e-45
255	0x80000004	-6e-45

exp_avg_sq f4 [10, 32]
0	0x289f02b1	1.7653713e-14
1	0x28abf2ad	1.9090058e-14
2	0x288ed9ef	1.585968e-14
3	0x2886bf12	1.4959852e-14
4	0x2886239e	1.4892435e-14
5	0x28d383ae	2.3482813e-14
6	0x28d6d5fa	2.385157e-14
7	0x28c13a3b	2.1452558e-14
8	0x2893f4ba	1.6426412e-14
9	0x28f0eec7	2.6748906e-14
10	0x283d984c	1.0524632e-14
11	0x28920b47	1.6214147e-14
12	0x28c57b1c	2.1924784e-14
13	0x28fb81d0	2.7922895e-14
14	0x28cd8629	2.2817755e-14
15	0x28a2cef8	1.8075371e-14
16	0x28a0c64e	1.784957e-14
17	0x2896e5df	1.6753036e-14
18	0x2888f98a	1.5207253e-14
19	0x291eb829	3.524278e-14
20	0x289915fa	1.6995943e-14
21	0x29085b4c	3.0277254e-14
22	0x28cf8aa5	2.3041744e-14
23	0x28dd1330	2.454425e-14
24	0x281e6334	8.792273e-15
25	0x28ac3937	1.9120649e-14
26	0x28628e6e	1.2576405e-14
27	0x28aafbf5	1.898306e-14
28	0x282a84e8	9.465715e-15
29	0x28ca4eb9	2.2460646e-14
30	0x28acdfaf	1.9192843e-14
31	0x290bc8b4	3.1038282e-14
32	0x28635278	1.2618914e-14
33	0x288b6092	1.547398e-14
34	0x282fd15c	9.759849e-15
35	0x289762c8	1.6807207e-14
36	0x286b0d59	1.3048015e-14
37	0x28a91cfd	1.877534e-14
38	0x288bc5bb	1.5517852e-14
39	0x28367cef	1.013012e-14
40	0x288bfdfc	1.5542248e-14
41	0x283b6e44	1.0404495e-14
42	0x28176df7	8.406029e-15
43	0x288b6dc2	1.54797e-14
44	0x28980d8e	1.6881268e-14
45	0x28a97cc5	1.881688e-14
46	0x28124d4d	8.12139e-15
47	0x2895dc20	1.6637787e-14
48	0x289d2f4f	1.7451018e-14
49	0x286c0b71	1.3103113e-14
50	0x284ef2f6	1.1487981e-14
51	0x28b4e4bb	2.008321e-14
52	0x28698f49	1.2965168e-14
53	0x28b8afd8	2.0504364e-14
54	0x288a3ab1	1.5346531e-14
55	0x288dc9bd	1.5741635e-14
56	0x2869f4ad	1.2987154e-14
57	0x28917909	1.6150724e-14
58	0x284fa1e2	1.1525911e-14
59	0x288f2fdf	1.589695e-14
60	0x287d1cf3	1.4050599e-14
61	0x289657df	1.6691453e-14
62	0x28c513ad	2.1879927e-14
63	0x281ff2ea	8.878947e-15
64	0x290e8956	3.1649454e-14
65	0x28e4048e	2.531506e-14
66	0x28f4786f	2.7141672e-14
67	0x293688cb	4.0530767e-14
68	0x28b4aa8f	2.0057982e-14
69	0x28bcf93a	2.0980278e-14
70	0x293bb347	4.167784e-14
71	0x2909d880	3.0607895e-14
72	0x290187f6	2.876168e-14
73	0x28e4221f	2.5327883e-14
74	0x291278d3	3.252331e-14
75	0x2910cc3b	3.2151565e-14
76	0x2913308d	3.2682668e-14
77	0x292e24ec	3.8667786e-14
78	0x28dca4e7	2.4496422e-14
79	0x28f7b80c	2.7502326e-14
80	0x28f49c49	2.715722e-14
81	0x28ff9ab7	2.8377784e-14
82	0x28f47a72	2.7142544e-14
83	0x2936ef25	4.0619543e-14
84	0x28cc1148	2.2656044e-14
85	0x28cd3519	2.27826e-14
86	0x291cbb30	3.4801318e-14
87	0x28ebc757	2.6176691e-14
88	0x28de5aa7	2.4686265e-14
89	0x28d99ef7	2.416078e-14
90	0x290046d6	2.848315e-14
91	0x28bb3962	2.0786056e-14
92	0x284ad87d	1.1260196e-14
93	0x289bdae4	1.7303386e-14
94	0x28a0d62b	1.7856449e-14
95	0x29225a85	3.604974e-14
96	0x28c5fd57	2.1981262e-14
97	0x28aee62d	1.9417703e-14
98	0x287ee7f4	1.4150129e-14
99	0x28bbe939	2.0862315e-14
100	0x2897f74f	1.687162e-14
101	0x28c6a403	2.2053545e-14
102	0x2916b7db	3.346616e-14
103	0x28a7e12b	1.8638376e-14
104	0x28ab1221	1.8992676e-14
105	0x28a0a3db	1.783463e-14
106	0x28ad76b4	1.9258338e-14
107	0x286d8263	1.3184416e-14
108	0x285523b3	1.1831616e-14
109	0x2904ab3c	2.945841e-14
110	0x28d8bcdd	2.4062724e-14
111	0x28ce8ad2	2.2930798e-14
112	0x28bf7079	2.1254037e-14
113	0x284fdc4c	1.15385776e-14
114	0x2892fd50	1.6319113e-14
115	0x2922e58e	3.6170333e-14
116	0x2859312c	1.2056582e-14
117	0x28feb928	2.8279964e-14
118	0x28ad38df	1.9231522e-14
119	0x28ff6565	2.835466e-14
120	0x2879d2b0	1.3867962e-14
121	0x2881d3a8	1.4413668e-14
122	0x28b70295	2.0318201e-14
123	0x288eec1a	1.586756e-14
124	0x27f090c9	6.6770358e-15
125	0x2858d135	1.2035773e-14
126	0x283f5b94	1.0622488e-14
127	0x28dd3eb4	2.4563122e-14
128	0x29055f85	2.9614782e-14
129	0x28c591c4	2.193461e-14
130	0x2907a19d	3.01162e-14
131	0x28fb9a3f	2.7933491e-14
132	0x28b7aa5b	2.0390961e-14
133	0x28c6b261	2.2059775e-14
134	0x28f6209d	2.732563e-14
135	0x28e2ff47	2.520175e-14
136	0x2925df82	3.6831222e-14
137	0x28d9a822	2.4164756e-14
138	0x28b317ba	1.9883282e-14
139	0x29118eab	3.2320212e-14
140	0x29187eca	3.3860752e-14
141	0x28e8833c	2.5814088e-14
142	0x29013416	2.868893e-14
143	0x2860b758	1.2474254e-14
144	0x28dae9fa	2.4304333e-14
145	0x287c4e20	1.4005751e-14
146	0x28b44607	2.0014384e-14
147	0x290f00c9	3.175306e-14
148	0x28c6cb17	2.2070492e-14
149	0x28d7bff1	2.3953036e-14
150	0x29272a8b	3.711835e-14
151	0x28e39d5c	2.5270306e-14
152	0x291be6bb	3.461704e-14
153	0x28904ca7	1.6020454e-14
154	0x28da0b0a	2.420765e-14
155	0x289e68c0	1.7586952e-14
156	0x28384876	1.0229764e-14
157	0x2873146d	1.3493639e-14
158	0x28f27a23	2.6920366e-14
159	0x28bb9535	2.0825879e-14
160	0x28e3348f	2.5224856e-14
161	0x28a9ae2b	1.8838302e-14
162	0x29144bce	3.292835e-14
163	0x28c0a76d	2.1388891e-14
164	0x289e0143	1.7542071e-14
165	0x28bd1422	2.0991946e-14
166	0x28d02151	2.3107088e-14
167	0x28c4284a	2.1777844e-14
168	0x2909b883	3.058015e-14
169	0x289dd25b	1.7521729e-14
170	0x28d1c6f0	2.3289937e-14
171	0x290198ee	2.87764e-14
172	0x289f8871	1.7711718e-14
173	0x28d24f35	2.3349034e-14
174	0x28449939	1.09134105e-14
175	0x28aa6a74	1.8919958e-14
176	0x288b3b41	1.5457797e-14
177	0x2867d1c9	1.2868566e-14
178	0x28ba4ca6	2.068339e-14
179	0x28f231de	2.6889024e-14
180	0x2891c499	1.6183494e-14
181	0x290af92f	3.0858288e-14
182	0x29098431	3.053477e-14
183	0x28e59523	2.5488785e-14
184	0x28cb60b4	2.2579466e-14
185	0x287a0c82	1.38805e-14
186	0x28a5ed90	1.8421706e-14
187	0x2896f426	1.6759228e-14
188	0x28639006	1.26322614e-14
189	0x2860d0d9	1.24797845e-14
190	0x28c95768	2.235339e-14
191	0x28db4023	2.4341699e-14
192	0x288f25b1	1.5892535e-14
193	0x2890522e	1.6022851e-14
194	0x28eebe16	2.6505745e-14
195	0x28ea5c7c	2.6019327e-14
196	0x289d6ab6	1.747678e-14
197	0x286d6762	1.317856e-14
198	0x2893486b	1.6351685e-14
199	0x28eb7e22	2.6144942e-14
200	0x2897ccec	1.6853238e-14
201	0x28ac1def	1.9108818e-14
202	0x28ab8094	1.9040576e-14
203	0x290255e5	2.89403e-14
204	0x28b511f0	2.0102816e-14
205	0x293bf7bc	4.1737216e-14
206	0x2875f8bc	1.3654168e-14
207	0x28bbd01a	2.085142e-14
208	0x28ca4f97	2.2461022e-14
209	0x28491eeb	1.1164446e-14
210	0x28824f82	1.446738e-14
211	0x29177c0b	3.3636325e-14
212	0x288cf9db	1.565148e-14
213	0x28b72dbd	2.0336917e-14
214	0x28de6821	2.469211e-14
215	0x28b34804	1.9904224e-14
216	0x28b19fd1	1.9720257e-14
217	0x287b6962	1.395615e-14
218	0x28a08832	1.7822634e-14
219	0x2848114a	1.1105979e-14
220	0x2807eec5	7.54578e-15
221	0x28656e91	1.2736029e-14
222	0x28c5287d	2.1888953e-14
223	0x28e2ec53	2.519353e-14
224	0x28b84a8a	2.046043e-14
225	0x28a8799d	1.8704488e-14
226	0x28640618	1.2657864e-14
227	0x2883a704	1.4616353e-14
228	0x289583b5	1.6599442e-14
229	0x28a5eed5	1.8422257e-14
230	0x2911c238	3.2364926e-14
231	0x28e47315	2.5362994e-14
232	0x28bf042a	2.1207066e-14
233	0x291367e8	3.273068e-14
234	0x287185c9	1.34071975e-14
235	0x28d09582	2.3157478e-14
236	0x28a36cd4	1.8143832e-14
237	0x28e16a0d	2.502601e-14
238	0x28bd453e	2.1013244e-14
239	0x28a68a29	1.848962e-14
240	0x2887dfaf	1.5085018e-14
241	0x288f8587	1.5934098e-14
242	0x28bf70e2	2.1254215e-14
243	0x28cf82b3	2.3038298e-14
244	0x288f8e47	1.5937892e-14
245	0x28d6548f	2.3795444e-14
246	0x28bccd6a	2.0961277e-14
247	0x28e938ac	2.5892774e-14
248	0x285571bc	1.18485374e-14
249	0x28a28467	1.8043033e-14
250	0x288df1b7	1.5758972e-14
251	0x28a50f40	1.8325294e-14
252	0x282a3c9d	9.450039e-15
253	0x2832313e	9.891663e-15
254	0x2881f342	1.4427373e-14
255	0x2884d12d	1.474566e-14

exp_avg f4 [10]
0	0x00000004	6e-45
1	0x00000004	6e-45
2	0x00000004	6e-45
3	0x00000004	6e-45
4	0x00000004	6e-45
5	0x00000004	6e-45
6	0x00000004	6e-45
7	0x00000004	6e-45
8	0x00000004	6e-45
9	0x00000004	6e-45

exp_avg_sq f4 [10]
0	0x28b42991	2.0002041e-14
1	0x288f8247	1.5932688e-14
2	0x28f477b7	2.714136e-14
3	0x28a2905b	1.8048217e-14
4	0x28ce38dc	2.2895253e-14
5	0x28c4d7e3	2.1853997e-14
6	0x289bfb31	1.7317394e-14
7	0x28a2edc1	1.8088722e-14
8	0x28a0be35	1.7846058e-14
9	0x28ab38df	1.9009478e-14
